scripts/model.pth (torch, 669760 bytes, 4 tensors)

fc1.weight f4 [100, 100]
00000000: 1500 c33d ec71 8d3d c0a3 9b3d 5f34 203d
00000010: 4cae be3d 794b 633d 9079 703d 797f ba3c
00000020: 1631 00bc ac34 5e3d d214 813d 8091 033b
00000030: 775c 57bd 14cf a83d ad01 ac3c 4aa4 9e3d
00000040: a574 0cbd b2b8 a0bd c48d ad3c f531 f1bc
00000050: 08f8 de3c 6373 9bbd 17fc 973d 19ac a0bd
00000060: 05b3 443b 1049 4abd 236b b1bd 37ec 283d
00000070: 37a9 aabd 445f fcbb 7155 a83d 4e79 06bc
00000080: f5dc 9cbb 79ff c63d c131 c53d 6f2b 8dbd
00000090: 1e1f c8bc a082 7abd ee63 b53d c103 2ebd
000000a0: cc33 853c a3a5 4dbd 7f8c acbd 8251 9a3d
000000b0: ae42 d93c 5b4c 513d 8230 c83d 5bf5 7ebd
000000c0: 6a87 4cbc 4f71 d83c 11c1 e8bc ac84 be3c
000000d0: e4c5 443d 436e 423c 42ed 5ebd 678e 0b3d
000000e0: 9821 0d39 a7ee 86bd 3cdd 61bd e3cf 913d
000000f0: 5be7 38bc 5bde b73d cad1 a1bd cc78 88bd
00000100: 57c4 17bd 3a16 423d 73a8 d23c c294 24bd
00000110: 3078 423d 24e3 c0bc a53b 323c a41d 113c
00000120: e88b 68bc 4515 ba3d 7f5c 533d 987c cdbd
00000130: 5b72 783d 5294 8d3d e383 8dbd 0ff3 7ebd
00000140: 80a2 0d3d e0d4 07bd 9d35 b8bc f21e 353b
00000150: 2849 c13d ef31 c8bd be0e a2bd c69a f73c
00000160: eb43 f43c 8fdf ea3c dc8a b63d 7dd3 b13c
00000170: 230f 0dbd ff0f 933d a438 9e3d d74b 3d3d
00000180: 0b3e 47bd c569 6e3d 9a62 3ebb b3e7 883c
00000190: f9aa 1f3d 9d44 b2bd 38e0 813d 9cbd 803b
000001a0: 343a 1fbd d31b 2d3d adaf 3e3c 39f1 583d
000001b0: 1b9a 9cbd da14 a43d 7861 e639 66fa 063d
000001c0: acc7 383d 662d 283d fd72 c6bd ba4d a9bd
000001d0: 0c79 b23d f7f5 07bd b6aa 443d ccac bf3d
000001e0: 4c87 86bd 637a 913d 8538 913d 6f33 e4bc
000001f0: 260f 44ba 728d 00bb e70c 983b 8960 98bd
00000200: aa94 9ebd 38a5 f6bc 7ff0 ddbb 8a38 9c3d
00000210: b981 c03c 2a94 71bd d230 113c 3de1 c13d
00000220: 1472 a23a 7eec 223d ebd6 513d 7af3 54bd
00000230: a904 c43d 74f4 f9bc 56ab 09bd d696 cbbd
00000240: a2c7 8cbd 2fcb 8fbd 42f0 bdbc 7070 9fbd
00000250: 8d92 bebc 4dcc 26bd dd42 a2bd e9a5 a33d
00000260: e589 41bd 0a77 99bd b7e1 2e3c a050 41bd
00000270: 8efc 913c c21c 423d 2966 843d 8431 913d
00000280: c0e2 c33c b827 c3bd 8c81 b83a 2a8a dd3c
00000290: 0b96 5c3d 2094 61bd ee5f 7cbb 967d babc
000002a0: 3d85 7a3d 73c9 963d 133d 303b 9d1c c9bd
000002b0: e469 5a3d 0686 3ebd bfdf b33d f6db 413b
000002c0: ce18 ae3d f7de af3b 138c dcbc 5185 bebd
000002d0: cfda 843b a10d 3b3d aaff efbc 4617 303d
000002e0: a31b c5bc 21dd 283d e53b 82bd a9c9 853d
000002f0: e54a d63c ea54 5dbd ff0f e53c 43cd 03bd
00000300: 600e b1bd 98e6 783d 28af 7d3c 7881 8cbd
00000310: ce78 c8bd dfe2 b63d a2a4 b33d 50f2 2fbd
00000320: 25d1 703d 6dc6 1ebd a846 8bbd b62b 9dbc
00000330: dd89 b43d d126 88bd fe14 a93d 76bb 6c3d
00000340: 37a8 5b3c 82d1 5ebc 328f 3dbc 6b22 25bd
00000350: 77db debc 2f67 acbc 0b41 99bd a4f6 223d
00000360: 5328 a13d 5a8d 073d 2b33 8c3c 0369 133d
00000370: 5acf 443d 137d 813d 2453 453d ddb0 333c
00000380: 119a 3f3d 42c1 80bb 7a85 843c 0724 103c
00000390: a24d 6c3d 86fe 9cbd c24c d4bc ecd3 073d
000003a0: bfab 17bd 09c3 fbbc 28cf 6d3d dbaa 58bb
000003b0: ab64 88bd b210 b9bc 1328 c5bc 261f c1bd
000003c0: 75ba c3bd 9346 e23c 81ee bfbd efc8 92bd
000003d0: b31a be3b f3be 833d 6f34 31bd f5c3 8ebc
000003e0: 8036 4d3d ebfe 32bd baa1 103d a4ff 183c
000003f0: f35b 923d 942e b83d 310f b1bd 9d6b 41bd
0.095215 0.069064945 0.07599592 0.039112445 0.09310588 0.0554919 0.05870968 0.022765862
-0.007824203 0.05424945 0.06302799 0.0020075738 -0.052578416 0.08242622 0.020996893 0.077461794
-0.03429093 -0.07847728 0.021185763 -0.029442767 0.02721788 -0.07590368 0.07421129 -0.07845325
0.003001393 -0.049386084 -0.08663013 0.041240897 -0.083330564 -0.0077017862 0.08219422 -0.008207632
-0.0047870823 0.09716696 0.096286304 -0.0689305 -0.0244289 -0.06115973 0.08856951 -0.04248405
0.01626005 -0.05020679 -0.08425235 0.07535078 0.026521053 0.05109821 0.09774877 -0.062245708
-0.012483457 0.026421217 -0.028412374 0.023256622 0.048040286 0.011867109 -0.054425485 0.034071352
0.00013459323 -0.06588488 -0.055142626 0.07119729 -0.011285628 0.08977958 -0.07901342 -0.06663665
-0.03705248 0.04738448 0.025715088 -0.04018093 0.0474779 -0.02354581 0.010878478 0.0088571645
-0.0141935125 0.09086088 0.051601883 -0.1003353 0.060655933 0.069130555 -0.06909921 -0.062243517
0.0345788 -0.033161998 -0.022486502 0.0027636853 0.094377816 -0.09775149 -0.07912968 0.030225169
0.029817542 0.028671054 0.08913204 0.02170729 -0.034438264 0.071807854 0.07725647 0.046214905
-0.048643153 0.05820634 -0.002905047 0.016712045 0.03898141 -0.08704493 0.063415945 0.003928853
-0.038873866 0.042262863 0.011638564 0.052964423 -0.07646581 0.080117896 0.00043941638 0.032953642
0.045112297 0.04105892 -0.09689901 -0.08266778 0.08714494 -0.033193555 0.048014365 0.0935913
-0.065687746 0.071034215 0.07090858 -0.027856557 -0.0007479064 -0.0019615558 0.00464021 -0.074402876
-0.07743199 -0.03010808 -0.006773054 0.076279715 0.023499357 -0.05897919 0.008861737 0.09466789
0.0012393617 0.039776318 0.051230352 -0.05199001 0.09571201 -0.030512072 -0.033610664 -0.09940879
-0.068740144 -0.07021176 -0.023185853 -0.077851176 -0.02326324 -0.04072218 -0.079229094 0.07990629
-0.047250647 -0.07493408 0.010673932 -0.04719603 0.017820623 0.047390707 0.06464798 0.070895225
0.023911834 -0.0952906 0.0014076694 0.02704342 0.05385403 -0.055072904 -0.0038509327 -0.022764962
0.061162222 0.07362642 0.0026891872 -0.09819911 0.05332364 -0.046514533 0.087829106 0.002958057
0.08500825 0.0053671557 -0.026922261 -0.09302772 0.0040544043 0.045667294 -0.029296715 0.042990945
-0.02406103 0.04122651 -0.0635908 0.06532604 0.02615876 -0.05403606 0.02796173 -0.032178175
-0.0864532 0.060766786 0.015483655 -0.06860632 -0.09788667 0.08929991 0.087716356 -0.042955697
0.058793206 -0.038763452 -0.06800586 -0.019185882 0.08815358 -0.06648029 0.08255957 0.057795964
0.013406805 -0.013599755 -0.011569785 -0.040316027 -0.027204258 -0.021045296 -0.07483109 0.039785996
0.07869019 0.033093788 0.017114243 0.03598882 0.04804931 0.06322684 0.048174992 0.01096746
0.04677779 -0.003929288 0.016176928 0.008797652 0.057691224 -0.07665734 -0.025915507 0.03316109
-0.037029024 -0.030732648 0.058058888 -0.0033060822 -0.06659826 -0.022590969 -0.02406696 -0.09429769
-0.09557048 0.027621543 -0.09371663 -0.07167231 0.0058015226 0.06432905 -0.043262895 -0.017427424
0.050100803 -0.04370014 0.035310484 0.009338293 0.07146444 0.08993259 -0.08645476 -0.04722177

fc1.bias f4 [100]
00000000: 054b 093a f753 683c 0c18 ad3d aeb4 c1bd
00000010: 4714 063c 75fa 2b3d 5b71 68bd f622 ae3d
00000020: 485b a1bd 3c83 343d d6df a13b 65da 2f3c
00000030: 53f1 8fbd 0cf1 c6bc 9640 38bd a9de 033d
00000040: b006 76bc 9308 8a3c bb2b f5bb e87e 413c
00000050: 705d 40bd c079 be3d 6aa9 a1bd 0447 343c
00000060: 260d bdbd 6331 ecbc 9edd 11bc 054a bfbd
00000070: 0206 a93d a073 063d b5ce 8e3d 6db1 8a3d
00000080: f834 bcbd b18a b6bd 44cc d63c e401 b9bd
00000090: 99df c63d ead7 cebd c7f5 c7bd 9d1b 52bc
000000a0: ee57 2cbd 8517 0cbb 5881 7ebd 1097 bf3d
000000b0: cb4b b73d b84b 9abd 3932 b63d 73a9 78bd
000000c0: 5bbb 8cbd 8acf 363c 8d1b b93d b7ad c43d
000000d0: 0f95 7a3c 78f1 713c 664e be3d 7a93 41bd
000000e0: 703d 5f3d c860 f7bc 6117 afbc 7bbd 3abd
000000f0: 5bde 0dbd f980 9a3d cee2 abbd efab a9bd
00000100: 6274 373d 7d00 833d c3cc b03d 9bd7 b23d
00000110: a72c b8bd ab7f 823d 9571 ab3d ec5d b5bd
00000120: 4e63 aa3c 581b eebc cc2d 893d aeaa 3fbd
00000130: ce1d 80bd dc81 14bd 4707 933d 1712 6b3d
00000140: bf59 953d 0aa2 193d a9e1 bbbd 5ae6 a2bd
00000150: 379d 993d 5549 90bc 7ccb 36bb c622 a23c
00000160: 61c6 423d 8c8f 08bd 7698 bb3d 80da d4bc
00000170: b32f 533d c8f2 9839 c36c a9bd 8922 a7bd
00000180: a54f 25bd 7c55 7ebd 030f 93bd 6a2c f73c
0.0005237314 0.014180175 0.08451852 -0.0945829 0.008183545 0.0419869 -0.05674873 0.08502762
-0.07878739 0.044070467 0.0049400134 0.010733222 -0.07028451 -0.024284862 -0.04498347 0.032194767
-0.015016243 0.016849792 -0.0074820197 0.011810042 -0.04696411 0.09300566 -0.07893641 0.01100326
-0.092310235 -0.028832143 -0.008902935 -0.0934029 0.08253099 0.032825112 0.0697302 0.067721225
-0.091897905 -0.08913172 0.026220448 -0.09033564 0.097106166 -0.10099776 -0.09763675 -0.012823966
-0.042076044 -0.0021376323 -0.06213507 0.09354985 0.08950003 -0.075339735 0.08896298 -0.060708474
-0.06871673 0.01115788 0.09038458 0.09603446 0.015294327 0.014767043 0.09292297 -0.047259785
0.05450195 -0.030197516 -0.021373453 -0.04559086 -0.034635883 0.07544131 -0.08392869 -0.08284747
0.044788726 0.063965775 0.08632805 0.0873253 -0.08992892 0.06372007 0.083712734 -0.08855805
0.020799305 -0.029065773 0.06698188 -0.046793632 -0.06255685 -0.036256656 0.071791224 0.0573903
0.07292508 0.037508048 -0.09173901 -0.07954092 0.075006895 -0.017613092 -0.0027892282 0.019791972
0.04755247 -0.033340022 0.09159939 -0.025983095 0.05155916 0.00029172585 -0.08272698 -0.08160884
-0.040359158 -0.062093243 -0.07180598 0.030172545

fc2.weight f4 [1553, 100]
00000000: 7356 873d 62e1 943d 1337 983d a397 a4bd
00000010: 8af3 73bd 0cd6 9e3d f4c9 133d 1c57 79bd
00000020: 5808 b93d 456c abbd 94e9 38bc 82c7 8d3d
00000030: 9bc1 aabd 2b9e 2dbd 0f75 d6bc 514b 1fbd
00000040: 3598 8fbd ee1f 20bd c887 f53b 2c56 60bd
00000050: 8d18 4b3d 0961 4c3d 89fc 8c3d 8c03 9f3d
00000060: 5f24 84bd 4e05 a4bd aae9 3aba e084 b33d
00000070: 54cd 8d3d 05a4 3f3d 96c7 aabc d4f4 b2bd
00000080: 51a3 413d 8eea 883d 0896 a5bb feaa a33d
00000090: bd55 8d3d f583 3cbd ed45 cbbd 07f9 b73d
000000a0: 274b bc3d 77cd b53d 1be5 783d 077a aebd
000000b0: a795 29bd 69d9 8d3d b14b bcbd f192 94bb
000000c0: 5135 823a f2a7 2ebd d2cc 37bd d935 a63c
000000d0: e439 8dbd ee22 463d fe82 803a a927 3fbd
000000e0: ad7f 823d 25f0 39bd 538b b53d 3b9a 9cbd
000000f0: fdb7 90bd 6ee0 afbd 6bcd a93d 313b 9dbb
00000100: 155b 753d 3ce7 36bc de40 a4bd 1120 fc3c
00000110: 71d6 be3c 7e53 643d 15d2 97bd a58e b5bc
00000120: 4e20 3dbd 0ef9 7f3d 89fd 043d e3d6 9e3c
00000130: c20b 3c3b c050 c1bd 31ea 203d 61ae c73d
00000140: 4d63 ab3d d414 65bd 9c0b 003d a970 bebd
00000150: 0bbf 0fbd e47b 9c3d c9bf 423d dd2c 13bd
00000160: 112d b3bd 0ff5 613d bcb5 77bc 2672 413d
00000170: b5ce a03d 438e 403d 19fc cdbd 75ca a0bc
00000180: 0ec6 6abc e567 14bd ebc3 403c 3be7 063d
00000190: cdbb 3d3d e4e8 983c 601a b3bd 7ed7 063d
000001a0: 88cd 253c ac3a dcbc 9f55 b53c ca08 cfbc
000001b0: b2f4 b5bd 1d52 803d 16ff b5bd 6df4 823d
000001c0: 18d1 03ba f2e9 ef3b 4253 8e3d b58a 7a3d
000001d0: bc20 ab3d ea02 8dbb dc75 59bd d9c1 b5bd
000001e0: b3d8 b73d 70a9 acbd b2a7 993d 61a6 84bd
000001f0: 5147 0bbd fc5a c13c dec5 9bbd bf87 a0bd
00000200: 4df4 5bbc 450d 203d f569 4d3d 9356 62bd
00000210: 7cea 413d ebbb 16bd 5a9f d9bc a876 0cbc
00000220: 898f 33bd 95e1 a5bd 26b0 863d f85c abbd
00000230: 5090 93bc 6a78 a5bc 2c19 8ebd 0764 a53c
00000240: 8bce d03c 4ce9 79bb db89 22bd 1daf 8bbd
00000250: c60f 973b 65a8 553b 2514 de3c f9f1 82bc
00000260: 1d5c 38bd 6f3c 603d d998 ca3b 5311 583d
00000270: 259c e2bc fce0 bdbd 27f2 21bd a6ba 013b
00000280: 6529 7fbd f45c abbd f04e 9f3d 2b63 ae3d
00000290: c86e 0d3d 160e 15bc eafa 8cbd 49a6 93bd
000002a0: 7ad0 81bc 1c1e b63d 5978 773d 076f 11bd
000002b0: bfaa 3abd 33f3 af3d 2171 b03c 7795 0c3d
000002c0: 5535 8f3c a4d2 13bc 3896 763c 4843 463c
000002d0: 70a6 64bd d665 7ebd 486a 89bb 47d7 3bbd
000002e0: 1b93 873d 3d8c 5bbd c660 dc3a 47b1 063d
000002f0: d255 afbc 5c11 863d 2111 86bd 782a c6bd
00000300: 1614 333c 9c1b a13d 379c 413d 798a 963d
00000310: 26df 77bd dffb 0bbd 7b21 b23d d25a 983c
00000320: fa44 41bb 5ce6 913d b081 623d a47e 833d
00000330: 3045 87bd 0eb4 aabc bcbe 363c f2c9 9dbb
00000340: 34ad 9ebd 8be7 3d3d c090 6ebd 924d bb3d
00000350: 30fe 23bd ec70 a53d 6df0 90bd ef86 2f3d
00000360: 533d a6bd d189 733d d6fa 883d 8440 963d
00000370: 731d 1bbd 756d 22bd da39 a2bd 25fb 99bd
00000380: eed2 a83d 30b6 b63d 8fb8 88bd 79fb bcbc
00000390: d5de 563d 3366 c63d ecf4 a9bd 4863 a13d
000003a0: 0d1e 103d 9e29 5a3c da49 b6bd a381 06bc
000003b0: 97d6 6b3d 8b56 893d fd3f fcbc e544 ffbc
000003c0: dca5 fb3c 97db fdbc fdd0 9c3d a1da 68bd
000003d0: f1b6 32bd a62f ed3b c88d 08bd 4da7 3fbc
000003e0: 580a a23d 1f13 a93d 1106 0bbd 3f63 6abd
000003f0: c4b2 94bd 7bfa 0c3d bf50 cc3c 57c9 a23d
0.06608286 0.07269551 0.074323796 -0.08036735 -0.05955843 0.0775567 0.03608127 -0.06087409
0.090347946 -0.0837026 -0.011286158 0.06922819 -0.083377086 -0.04238717 -0.026178865 -0.038890187
-0.07011453 -0.03909295 0.007492993 -0.05476968 0.04958396 0.049897227 0.06884105 0.077643484
-0.0645225 -0.08008824 -0.00071301556 0.08765578 0.06923929 0.04678728 -0.020847123 -0.087381035
0.04727489 0.06685363 -0.0050532855 0.079915985 0.06901119 -0.04602428 -0.09925447 0.08983045
0.09194022 0.0887708 0.060765367 -0.085193686 -0.041402485 0.06926233 -0.091941245 -0.0045341183
0.0009934102 -0.042640634 -0.044873066 0.020289348 -0.068958074 0.048373155 0.0009804664 -0.046668682
0.063720085 -0.045395035 0.088644646 -0.076466046 -0.07066343 -0.085877284 0.082911335 -0.004798316
0.059901316 -0.011163529 -0.08020185 0.03077701 0.023295613 0.055743687 -0.07413117 -0.022162745
-0.046173386 0.062493376 0.032468352 0.019389575 0.0028693532 -0.0943923 0.039285842 0.09750057
0.083685495 -0.055928066 0.03126107 -0.09298832 -0.035094302 0.07640818 0.04754618 -0.035931457
-0.0874883 0.055165347 -0.015119012 0.047228 0.07851926 0.04701067 -0.100578494 -0.019627789
-0.0143294465 -0.036231894 0.0117654605 0.032935362 0.04632168 0.018665738 -0.08745265 0.032920353
0.010119803 -0.026883446 0.022135554 -0.025272746 -0.088845626 0.06265662 -0.088865444 0.06394277
-0.0005028411 0.0073215896 0.06949474 0.061167438 0.08355853 -0.004303326 -0.053090915 -0.08874864
0.08976879 -0.08430755 0.075026885 -0.06477047 -0.03400356 0.023602955 -0.076060995 -0.078383915
-0.013424945 0.039075155 0.050149877 -0.055258345 0.047342762 -0.036800306 -0.026565243 -0.008573212
-0.043838058 -0.08099667 0.065765664 -0.08367342 -0.01801315 -0.02019902 -0.06938395 0.020189298
0.025489112 -0.003813344 -0.03968225 -0.068205096 0.0046100346 0.0032601592 0.027109215 -0.015984522
-0.04500972 0.054745134 0.0061827716 0.052750897 -0.027662346 -0.09271428 -0.039537575 0.001979509
-0.062295336 -0.08367339 0.07778728 0.085150085 0.034529477 -0.009097597 -0.068837956 -0.07209451
-0.01584648 0.08892462 0.060417507 -0.035506275 -0.045572992 0.085913084 0.021538319 0.03432223
0.017481485 -0.009022389 0.015050463 0.012101002 -0.05582279 -0.062108837 -0.004193578 -0.0458596
0.06619855 -0.05360054 0.0016813509 0.03288391 -0.021403227 0.0654628 -0.06546236 -0.09676069
0.010930082 0.07866594 0.04726812 0.0735063 -0.060515545 -0.03417575 0.08697792 0.018597994
-0.0029490576 0.07124016 0.05529946 0.06420639 -0.06604993 -0.02083781 0.011153873 -0.0048153335
-0.077478796 0.046363395 -0.058243513 0.09145655 -0.040037334 0.08078179 -0.070771076 0.042853292
-0.081171654 0.059457604 0.06688468 0.07336524 -0.03786988 -0.039655168 -0.079211906 -0.07518605
0.08243357 0.08921468 -0.06675827 -0.02306913 0.052458603 0.09687462 -0.08298668 0.078802645
0.03518491 0.013315586 -0.08900805 -0.008209619 0.057577696 0.0670596 -0.03079223 -0.031160781
0.030718736 -0.030988498 0.07657049 -0.056849126 -0.043631498 0.007238346 -0.033338338 -0.011697602
0.07912129 0.082556 -0.033941332 -0.057223555 -0.07260659 0.034418564 0.024940846 0.07948559

fc2.bias f4 [1553]
00000000: 4f1a f63c d22d 1fbd 568b 89bd 1a93 be3d
00000010: 2ead 673d 50c0 13bd c9b9 143d d366 a7bc
00000020: 48f2 3c3d 2527 c73d 8d13 46bd 6e18 9f3d
00000030: 5903 42bd 232c b0bd fbab abbc 59d7 493d
00000040: b278 8bbd e141 10bb e63b 233d 1477 84bb
00000050: d60a 323d 9e58 09bd 1ed7 e53b e092 e73c
00000060: 3e02 cabc 7760 16bd 2470 52bd 6bd4 4c3c
00000070: 8732 53bd 148c c5bc 76cf 9a3c eac4 53bd
00000080: e1d0 9bbd c96f a43d 9ae0 e7bc 7560 563d
00000090: 3f8c 953c b1b1 1e3d 249e b6bd 56f9 f73b
000000a0: 0cb2 a4bc f6b9 b5bc 7528 5cbc 6d10 87bd
000000b0: 5fd6 5ebd 8459 8b3d 9778 39bc fd24 8d3c
000000c0: 9d2a 063d c39d 92bb 21fb b2bd 4a43 d1bc
000000d0: e306 5fbd e0f6 e63c 35aa e23c fc13 30bd
000000e0: ac79 753d 1f93 bc3d e2b1 b43d 6a29 a73d
000000f0: a0d4 8b3b af4c e03c b1d0 2d3c b8f3 bc3d
00000100: ebbe a93d 8481 8a3d 24fd 8f3c c0da a337
00000110: c8cc aa3c 6f09 a6bc cad2 b1bd 4dd4 afbc
00000120: 4828 a33d decd 9cbc cd8b c6bd 243d 00bd
00000130: b43e b83d 7563 8fbd c6e0 46bd 0eed 4cbd
00000140: e92e 803d 25d9 aabd db04 92ba 1f9d 44bd
00000150: fe1f ec3c a6e7 be3d 91e0 363d 4047 56bd
00000160: ff70 b73d d33f 98bd b61f 2b3d 1686 573d
00000170: 8f86 2e3d eefa babc ae76 64bc ab73 5a3c
00000180: 2fa4 793b 6d04 2cbd 3a1c 94bd 4aa0 733a
00000190: f66c b83d dc8d a43d e717 2f3d 9234 843b
000001a0: c72e c83d 80c5 223d 9f7a f03b 5321 8cbd
000001b0: c569 7fbd 8a5c ba3c 9d7d 373b 8a7f 73bb
000001c0: ca96 fdbc 4448 b93b c6ea ff3c 87df 023d
000001d0: 2ddf 983d ee5b 92bd 94b2 9dbb e13a b43d
000001e0: 64ff ffbb 34d4 7abd 8e05 c2bd f960 6cbd
000001f0: 0da1 c03d f5cc 71bd b9db 813d ad08 d0bc
00000200: 40a2 cc3c b607 5b3d b6ff 3dbd 3067 b03d
00000210: b5c8 53bd 57ef 77bd 9541 8bbd e8e4 9ebd
00000220: d093 38ba 8201 7f3d 69bc abbd 8701 91bd
00000230: 248c 44bc c21b 083d 7466 a7bd 9c9e 8d3d
00000240: 1e79 8d3d 7cdb 10bd dcf6 5fbd 0f4a d6bc
00000250: b5ec babc a114 373d 4929 6f3d ff43 983d
00000260: b854 1d3b c82d bf3d b17e bcbd 0f1c 6cbd
00000270: e4eb c6bd 1391 2fbb e101 683d fb4d 5cbd
00000280: d96a edbc 2e3b 99bd a2bb 883d 3781 1e3d
00000290: 3934 8fbd 867e 1f3d 9b5a b5bd 309e cfbd
000002a0: 7df8 923d aaeb fabb 42d8 c3bc 6e5e 5cbd
000002b0: b4d1 943d f5d8 c4bd be11 88bd ac66 6a3d
000002c0: 0140 8e3d 88d4 063d 46e9 8bbb beb8 923d
000002d0: ad3b a93d 2a6c a43c bb03 bbbd 9612 86bd
000002e0: 2af6 b13d fba7 87bc e40f fa3c ab16 9fbd
000002f0: 5b1d 3c3d e5b1 c83d 01c4 0c3c 2889 82bd
00000300: cdc5 3bbc 8fd6 8dbd 5366 b03d 0e40 a2bd
00000310: 0645 87bd 1f24 e9bc 7ae4 a5bd d478 2dba
00000320: f628 2ebd f49c ccbc e2b2 65bc 79f0 933d
00000330: 4baa a0bc 3ffd 17bd 7ed4 36bd 9da5 ef3c
00000340: 2380 013d de4d 343d 20b4 993c 23cf 923d
00000350: 7cce 0d3c 3c38 a43d b588 1cbd ff8b 393b
00000360: 4d49 bdbd 53d9 123c e382 abbd 1181 1dbd
00000370: d8c7 12bd d6ac 833d 4194 55bd a489 0e3d
00000380: f7ec 3dbd dda9 0abc 9ad0 5e3d ae7f 95bd
00000390: 1e98 813d db4e c2bd 0c9f 86bc 2e30 0abd
000003a0: 3f38 60bd 3766 82bd 4ceb c23d 1ca4 68bc
000003b0: eeea 90bd cdf1 0e3c 2571 fa3c 8d2f 8f3d
000003c0: 3f64 923d 2321 5bbd 898e 543d 893d 4f3d
000003d0: a6cc 8a3d 8e92 943d b352 b0bc 9fe7 a6bd
000003e0: c86b 863d 7154 48bd 17ab 89bd 5aa6 48bd
000003f0: 3c36 4ebd 3b32 c9bd a68b 8a3b 5965 9b3d
0.030041842 -0.038862057 -0.06716029 0.09305401 0.05656164 -0.036072075 0.03630999 -0.020434773
0.046129495 0.09724263 -0.04835849 0.077683315 -0.047366474 -0.086021684 -0.02095603 0.049277637
-0.0681013 -0.0022011923 0.039852045 -0.0040425155 0.043467365 -0.033531778 0.0070141694 0.028268278
-0.024659272 -0.03671309 -0.051376477 0.012501816 -0.05156186 -0.024114646 0.018897753 -0.051701464
-0.076082 0.08029134 -0.02830534 0.052338082 0.018255351 0.03874368 -0.08916882 0.007567565
-0.02010443 -0.0221834 -0.01343738 -0.0659493 -0.05440366 0.06804183 -0.011320255 0.017229551
0.032755483 -0.004474373 -0.08739305 -0.025544781 -0.054449927 0.028193891 0.027669052 -0.04298781
0.05993049 0.092077486 0.08822991 0.08162196 0.0042672902 0.027380316 0.010608838 0.09226173
0.08288368 0.067629844 0.017576762 1.9532978e-05 0.0208496 -0.02026817 -0.08682783 -0.021463538
0.079666674 -0.019141134 -0.09694634 -0.03130831 0.08996335 -0.07001392 -0.048554204 -0.05003076
0.062589474 -0.08342198 -0.0011140363 -0.048001405 0.028823849 0.09321527 0.044647757 -0.052314043
0.08957099 -0.074340485 0.04177829 0.05261811 0.042608794 -0.02282473 -0.013944311 0.013333241
0.0038092246 -0.04199641 -0.07231946 0.0009293599 0.09005158 0.0803487 0.042747404 0.004034587
0.09774547 0.039739132 0.0073388363 -0.068422936 -0.06235673 0.022749204 0.0027998455 -0.0037154877
-0.03095569 0.0056543667 0.031239878 0.031951454 0.074644424 -0.071464404 -0.004812548 0.08800293
-0.0078124274 -0.06123753 -0.09473716 -0.057709668 0.09405718 -0.059033353 0.06340737 -0.025394762
0.02497971 0.05347415 -0.046386443 0.086134315 -0.05170508 -0.060530987 -0.06799618 -0.07758504
-0.0007041069 0.062257297 -0.08385546 -0.070803694 -0.011996303 0.033229597 -0.08173838 0.06915018
0.06907867 -0.035365567 -0.054678783 -0.02615836 -0.022817949 0.044697408 0.058388982 0.07434844
0.0024006795 0.09334904 -0.09203852 -0.057643946 -0.09712961 -0.0026789352 0.056642417 -0.053785305
-0.028981613 -0.07481991 0.06676413 0.038697448 -0.069923826 0.03893902 -0.08855172 -0.10137594
0.07176302 -0.007657488 -0.02390683 -0.053800993 0.0726656 -0.09611694 -0.06644009 0.05722682
0.069458015 0.03291753 -0.0042697517 0.07164143 0.082633354 0.020071108 -0.09131571 -0.06546514
0.0868953 -0.016559592 0.030525155 -0.077679954 0.045926433 0.09799556 0.008591653 -0.06373817
-0.011460734 -0.069256894 0.08613267 -0.07922374 -0.06604962 -0.028459607 -0.08100219 -0.0006617431
-0.042519532 -0.024977185 -0.0140197 0.07223601 -0.019612452 -0.03710675 -0.044636242 0.029253775
0.03161634 0.044019572 0.018762648 0.071684144 0.008655187 0.08018538 -0.03821631 0.0028312204
-0.09242497 0.008962947 -0.08374574 -0.038453165 -0.035835117 0.0642945 -0.05214334 0.034799233
-0.046368565 -0.00846335 0.054398157 -0.072997436 0.06327842 -0.09487697 -0.016433261 -0.033737354
-0.05474114 -0.06367152 0.095175356 -0.014199283 -0.07076059 0.008724642 0.03057153 0.069914915
0.07148027 -0.0534984 0.051893745 0.050595794 0.06777315 0.072545156 -0.021523809 -0.08149647
0.065635264 -0.048908655 -0.06722086 -0.04898677 -0.05034469 -0.09824034 0.004228073 0.0758769
